…
quot;, activation=&quot;relu&quot;), # Third pooling layer MaxPooling2D( pool_size=2, strides=2), # Flattening Flatten(), # Fully-connected layer Dense(512, activation=&quot;relu&quot;), Dropout(rate=0.2), Dense(128, activation=&quot;relu&quot;), Dropout(rate=0.2), Dense(32, activation=&quot;relu&quot;), Dropout(rate=0.2), Dense(1, activation=&quot;sigmoid&quot;) ] ) model.summary() . . Model: &#34;sequential&#34; _________________________________________________________________ Layer (type) Output Shape Param # ================================================================= conv2d (Conv2D) (None, 100, 100, 64) 640 _________________________________________________________________ max_pooling2d (MaxPooling2D) (None, 50, 50, 64) 0 _________________________________________________________________ conv2d_1 (Conv2D) (None, 50, 50, 32) 18464 _________________________________________________________________ max_pooling2d_1 (MaxPooling2 (None, 25, 25, 32) 0 _________________________________________________________________ conv2d_2 (Conv2D) (None, 25, 25, 16) 4624 _________________________________________________________________ max_pooling2d_2 (MaxPooling2 (None, 12, 12, 16) 0 _________________________________________________________________ flatten (Flatten) (None, 2304) 0 _________________________________________________________________ dense (Dense) (None, 512) 1180160 _________________________________________________________________ dropout (Dropout) (None, 512) 0 _________________________________________________________________ dense_1 (Dense) (None, 128) 65664 _________________________________________________________________ dropout_1 (Dropout) (None, 128) 0 _________________________________________________________________ dense_2 (Dense) (None, 32) 4128 _________________________________________________________________ dropout_2 (Dropout) (None, 32) 0 _________________________________________________________________ dense_3 (Dense) (None, 1) 33 ================================================================= Total params: 1,273,713 Trainable params: 1,273,713 Non-trainable params: 0 _________________________________________________________________ . Compile Model . Next, we specify how the model backpropagates or update the weights after each batch feed-forward. We use adam optimizer and a loss function binary cross-entropy since we ar
…
convolutional layer Conv2D(filters=16, kernel_size=3, strides=2, activation=&quot;relu&quot;), # Second pooling layer MaxPooling2D(pool_size=2, strides=2), # Flattening Flatten(), # Fully-connected layer Dense(128, activation=&quot;relu&quot;), Dropout(rate=0.2), Dense(64, activation=&quot;relu&quot;), Dropout(rate=0.2), Dense(1, activation=&quot;sigmoid&quot;) ] ) model.summary() . Model: &#34;sequential_1&#34; _________________________________________________________________ Layer (type) Output Shape Param # ================================================================= conv2d_1 (Conv2D) (None, 149, 149, 32) 320 _________________________________________________________________ max_pooling2d_1 (MaxPooling2 (None, 74, 74, 32) 0 _________________________________________________________________ conv2d_2 (Conv2D) (None, 36, 36, 16) 4624 _________________________________________________________________ max_pooling2d_2 (MaxPooling2 (None, 18, 18, 16) 0 _________________________________________________________________ flatten_1 (Flatten) (None, 5184) 0 _________________________________________________________________ dense_1 (Dense) (None, 128) 663680 _________________________________________________________________ dropout_1 (Dropout) (None, 128) 0 _________________________________________________________________ dense_2 (Dense) (None, 64) 8256 _________________________________________________________________ dropout_2 (Dropout) (None, 64) 0 _________________________________________________________________ dense_3 (Dense) (None, 1) 65 ================================================================= Total params: 676,945 Trainable params: 676,945 Non-trainable params: 0 _________________________________________________________________ . Compile the Model . Next, we specify how the model backpropagates or update the weights after each batch feed-forward. We use Adam optimizer and a loss function binary cross-entropy since we ar
…
